code/crowd_dynamics/ANNS/actor.pth (torch_old, 18997 bytes, 5 tensors)

linear1.weight f4 [64, 3]
0	0x3e6bf431	0.2304237
1	0x3d8c8176	0.0686063
2	0x3e06a53f	0.13148974
3	0x3d6917fa	0.05690763
4	0x3ee0ca5a	0.43904382
5	0xbe04d6c6	-0.12972555
6	0xbe3fd2fc	-0.18732828
7	0x3f08ad91	0.5338984
8	0xbf1e51a3	-0.6184332
9	0xbee915f8	-0.45524573
10	0x3da2d370	0.07950485
11	0xbeeb2844	-0.45929158
12	0x3ee14a02	0.44001776
13	0xbebb2bde	-0.36556906
14	0xbedcaf84	-0.43102658
15	0xbef83ddf	-0.48484704
16	0x3ef86848	0.4851706
17	0xbef91685	-0.48649994
18	0x3e8f7522	0.28019053
19	0x3e19876e	0.14993069
20	0x3ebd7ae5	0.37007824
21	0x3e1ec7ca	0.15505901
22	0x3e3478b0	0.17624164
23	0xbe410161	-0.18848182
24	0xbebd2543	-0.3694249
25	0x3e87e2da	0.26540262
26	0xbe49148b	-0.19636743
27	0x3e9a85e4	0.30180275
28	0xbef92fd8	-0.48669314
29	0xbf1168e9	-0.56800705
30	0x3ec1b306	0.37831897
31	0x3cec6e18	0.02886109
32	0xbd886c69	-0.066613026
33	0x3e24815c	0.16064972
34	0xbde93ac0	-0.11388159
35	0xbf06326b	-0.5242068
36	0xbe579e1c	-0.21056408
37	0x3e280697	0.16408764
38	0xbf015994	-0.5052731
39	0xbe7fa539	-0.24965371
40	0x3ed72e70	0.42027617
41	0x3ef95e7d	0.487049
42	0xbecf3a2f	-0.40474078
43	0x3f0e63ac	0.5562084
44	0xbeb16931	-0.34650567
45	0x3abcd9e9	0.0014408204
46	0x3eed2652	0.463183
47	0x3e2344b1	0.15944172
48	0xbefa4b10	-0.48885393
49	0xbf00342a	-0.50079596
50	0xbe8c2530	-0.27372122
51	0x3ee9850c	0.4560932
52	0x3ee9b648	0.45646882
53	0x3e3eebf0	0.1864469
54	0x3e9a1190	0.30091524
55	0x3e3303b4	0.17481881
56	0xbe4c467f	-0.19948767
57	0xbebc4a45	-0.36775413
58	0xbe8b4471	-0.27200654
59	0x3e736ce4	0.23772007
60	0x3ed777ca	0.4208358
61	0x3ebab4ae	0.36465973
62	0xbe22ae0e	-0.15886709
63	0x3e0c667c	0.1371097
64	0xbeb5511a	-0.35413438
65	0xbe4aebd0	-0.19816518
66	0x3eeb2448	0.45926118
67	0xbf13ad10	-0.5768595
68	0x3ee20c6b	0.441501
69	0xbe9ea08e	-0.30981869
70	0xbe55577e	-0.20834157
71	0x3edcd83c	0.43133724
72	0xbe5be8f7	-0.21475588
73	0x3eca12de	0.3946752
74	0x3eb85707	0.36003897
75	0xbe265fda	-0.16247502
76	0xbceb6c80	-0.02873826
77	0xbd2f0780	-0.042731762
78	0x3eb89464	0.36050713
79	0x3f0ea0e1	0.5571423
80	0xbea8feb4	-0.33006823
81	0xbee92753	-0.45537814
82	0x3ea3b189	0.31971386
83	0x3f109adc	0.56486297
84	0xbde9247c	-0.11383912
85	0xbf050d82	-0.51973736
86	0xbf03dcc3	-0.5150873
87	0xbdf1bbac	-0.11803374
88	0x3e8596ab	0.26091513
89	0x3e952de1	0.29136565
90	0x3cf9caa7	0.03049214
91	0xbd487c17	-0.048946466
92	0x3f176a9d	0.59147054
93	0x3e5fe932	0.218663
94	0xbe245413	-0.16047697
95	0xbbcd0e1f	-0.006257787
96	0x3d701229	0.05861107
97	0xbdf926a3	-0.121655725
98	0x3cf42058	0.029800579
99	0xbe6a558d	-0.22884198
100	0x3ee72c8a	0.45151168
101	0x3eb6bb45	0.3568975
102	0xbed95066	-0.42444152
103	0x3ebc54fd	0.3678359
104	0xbebcaa32	-0.368486
105	0x3d38a250	0.04507667
106	0xbec4f618	-0.38469005
107	0xbdc0dbb4	-0.09416905
108	0x3ebb2124	0.36548722
109	0x3ebf67a2	0.37383753
110	0x3df432c8	0.11923748
111	0xbb414200	-0.0029488802
112	0x3cd61ea0	0.02613765
113	0xbc006bc0	-0.00783819
114	0xbe487f72	-0.19579867
115	0xbd64e480	-0.055881977
116	0x3e025cc0	0.12730694
117	0x3eb704d5	0.35745874
118	0xbe9dfa35	-0.30854955
119	0x3e50e17e	0.20398518
120	0x3db7e5f5	0.08979408
121	0x3de3994e	0.11113225
122	0x3f0407ad	0.5157421
123	0x3e8781a6	0.264661
124	0xbf0b9eca	-0.5453917
125	0x3f0c69f4	0.5484917
126	0xbe98766d	-0.29777852
127	0x3e27e94d	0.16397591
128	0x3f1532a5	0.582804
129	0xbd0c3993	-0.034234595
130	0xbe92e4ed	-0.28690282
131	0x3f04e223	0.5190756
132	0xbdd8a1a0	-0.105777025
133	0xbe62485a	-0.22097912
134	0xbe2ea012	-0.1705325
135	0x3e2088dd	0.15677209
136	0xbf16ceef	-0.58909506
137	0x3f082515	0.5318158
138	0xbed771c9	-0.42079
139	0x3e8df45d	0.27725497
140	0xbe3aabf2	-0.18229654
141	0xbe017034	-0.12640458
142	0xbe3b0f40	-0.18267536
143	0x3e29f048	0.16595566
144	0x3eae0ee6	0.33995742
145	0xbda94044	-0.08264211
146	0xbd33cd34	-0.04389687
147	0x3e3a8ea1	0.18218471
148	0x3d5478f3	0.05187316
149	0x3e4fa0c8	0.20276177
150	0xbf0f02fc	-0.5586393
151	0x3e6b7fd7	0.22997986
152	0x3f0436cb	0.5164611
153	0x3efd7c52	0.4950891
154	0xbed7cb27	-0.4214718
155	0x3e47e067	0.19519196
156	0x3db9299b	0.09041139
157	0x3e13b1ef	0.14423345
158	0xbdf84625	-0.12122754
159	0xbe28fa22	-0.16501668
160	0x3ef67c87	0.48141882
161	0x3e1b6db4	0.15178567
162	0x3e76a5d1	0.24086691
163	0x3ee1cd76	0.44102067
164	0x3e4e3a45	0.20139416
165	0x3e5fde31	0.21862103
166	0x3f12abbe	0.5729331
167	0x3eb9751e	0.36222166
168	0xbe3bc3f2	-0.18336466
169	0xbe10e6c6	-0.14150533
170	0x3ee301a8	0.443372
171	0x3e02f47f	0.1278858
172	0xbda6f09d	-0.08151362
173	0xbd4fd4bf	-0.05074
174	0xbf104303	-0.5635225
175	0xbe444646	-0.19167432
176	0xbedfa6d0	-0.43681955
177	0xbd9fd7c4	-0.07804826
178	0xbdf04f44	-0.11733869
179	0xbeed28f0	-0.46320295
180	0xbe9fe6e6	-0.3123085
181	0xbeaf3900	-0.34223175
182	0xbe9a9ac4	-0.30196202
183	0xbeb34622	-0.35014445
184	0x3e512876	0.20425591
185	0x3e3d097a	0.18460646
186	0x3ede6fbd	0.43444625
187	0xbe9911bb	-0.2989634
188	0x3ef56c8b	0.47934374
189	0xbe23b9dc	-0.15988868
190	0xbee14fb1	-0.44006112
191	0x3f129368	0.57256174

linear1.bias f4 [64]
0	0xbe29a2f5	-0.1656607
1	0xbd8219be	-0.06352566
2	0x3bc640d4	0.0060502086
3	0xbef0fde8	-0.47068715
4	0x3e6c03c9	0.23048319
5	0x3e8ee96d	0.27912465
6	0x3e6ed06b	0.23321693
7	0x3dec7b32	0.11546935
8	0xbd2f4b36	-0.042796336
9	0x3e854430	0.26028585
10	0xbee0a570	-0.4387622
11	0xbf0bd82d	-0.54626733
12	0xbe21922f	-0.15778421
13	0xbe3f4f1a	-0.18682519
14	0xbf04b4a7	-0.51838154
15	0xbef24dac	-0.47324884
16	0x3ebf97dc	0.37420547
17	0xbed1824b	-0.40919718
18	0x3d0d417b	0.034486275
19	0x3e840e30	0.25792074
20	0x3e6e7764	0.23287731
21	0x3ed3afac	0.41344965
22	0xbd92f12e	-0.071749076
23	0xbea053e5	-0.31314006
24	0x3e6bc9af	0.23026155
25	0xbed654f8	-0.418617
26	0xbed54a4e	-0.41658252
27	0x3ee4801c	0.4462899
28	0x3f0278f4	0.5096581
29	0x3e8a5146	0.27015132
30	0xbe1ef090	-0.15521455
31	0xbebef6e4	-0.37297738
32	0xbed13599	-0.40861204
33	0x3e1f9acc	0.15586394
34	0x3ee58747	0.4482977
35	0x3e4648d4	0.19363719
36	0x3dc67ee0	0.09692168
37	0xbef56902	-0.47931677
38	0x3ef5b250	0.47987604
39	0x3dfe797b	0.12425514
40	0x3e88bf4e	0.26708454
41	0xbeab96df	-0.33513543
42	0xbe137591	-0.14400317
43	0xbdbfc600	-0.093639374
44	0xbe2c6508	-0.16835415
45	0x3bdf48a9	0.0068140817
46	0x3eb94544	0.36185658
47	0x3ea24482	0.31692892
48	0xbdb7e343	-0.089788936
49	0xbdc22f5b	-0.094816886
50	0x3ed833c8	0.42227006
51	0xbe21a61f	-0.15786026
52	0x3edaf455	0.42764536
53	0xbe37998a	-0.17929664
54	0xbe68781a	-0.22702065
55	0x3df4e396	0.11957471
56	0xbea7c464	-0.32767022
57	0xbf174c64	-0.5910094
58	0xbe937cee	-0.2880625
59	0xbdd6344c	-0.104591936
60	0x3d966180	0.073428154
61	0xbe8d68c9	-0.27619007
62	0xbee7cb05	-0.4527208
63	0xbf1398c5	-0.5765498

linear2.weight f4 [64, 64]
0	0x3d402380	0.046908855
1	0xbd8e8ac2	-0.0696006
2	0x3dbb0a24	0.091327935
3	0x3df008d6	0.11720435
4	0x3de6d9a0	0.112719774
5	0xbdd8bbc4	-0.105826885
6	0x3a83a180	0.0010042638
7	0xbd1072dc	-0.03526579
8	0x3dc19764	0.094527036
9	0xbd82717e	-0.06369303
10	0xbb728a40	-0.0037008673
11	0xbda5742a	-0.08078797
12	0xbda32758	-0.079664886
13	0x3d83d03e	0.064362034
14	0xbd5256b8	-0.051352233
15	0x3d91674c	0.070997804
16	0x3c3f2620	0.011666805
17	0x3de4638c	0.111517996
18	0x3cb21a30	0.021741003
19	0xbd9ac982	-0.07557966
20	0xbdd73904	-0.10508922
21	0x3d2a57ec	0.041587755
22	0x3d77d794	0.060508326
23	0x3d6d29c8	0.057901174
24	0x3d586b00	0.05283642
25	0xbde6f688	-0.11277491
26	0x3c8ccec8	0.017188445
27	0xbcf0f738	-0.029414758
28	0x3b331bc0	0.0027329773
29	0xbda4a954	-0.08040109
30	0x3b8877a0	0.004164651
31	0x39d70400	0.00041010976
32	0xbd821212	-0.06351103
33	0x3de1fcc6	0.11034541
34	0xbcc49df0	-0.024001092
35	0xbc2e4970	-0.010637626
36	0xbd5c9eb8	-0.053862303
37	0xbdc53c7c	-0.09630677
38	0xbdf649d2	-0.12025799
39	0x3d3cefb0	0.04612702
40	0xbd90def2	-0.070737734
41	0x3dc5615e	0.09637712
42	0xbd8b01c8	-0.06787449
43	0xbd7d3d2c	-0.061825916
44	0x3ddc66b0	0.107617736
45	0xbd2d4ba4	-0.042308465
46	0xbd08be0c	-0.033384368
47	0x3d87168e	0.06596099
48	0xbdbfbc98	-0.09362143
49	0xbb26e040	-0.0025463253
50	0x3df105c4	0.11768678
51	0xbdc73a5a	-0.097279266
52	0xbdebe4c6	-0.115182444
53	0xbdabe170	-0.08392608
54	0xbd81dc00	-0.0634079
55	0xbd87852a	-0.06617196
56	0x3b9d7480	0.0048051476
57	0xbd37360c	-0.044729277
58	0xbd94ac7a	-0.0725946
59	0x3d09a5d8	0.033605427
60	0xbcfe73b8	-0.031061038
61	0x3ccf1590	0.025278836
62	0xbd9e51a6	-0.07730417
63	0x3d8f4eb0	0.0699743
64	0xbd0b36b5	-0.03398772
65	0x3d8d251b	0.06891843
66	0xbde04f41	-0.109526165
67	0x3da11bb8	0.07866615
68	0xbd9e02f7	-0.07715409
69	0xbdc71048	-0.09719902
70	0x3d92c2c7	0.07166057
71	0xbb66da34	-0.0035225274
72	0x3d2fa4f0	0.042881906
73	0xbd457dc8	-0.048215657
74	0xbda3b9d6	-0.0799443
75	0x3b9a44a0	0.004707888
76	0xbdbfa2b6	-0.093572065
77	0x3d8fb7bb	0.07017466
78	0x3d56ff7c	0.052489743
79	0xbdf90cdc	-0.12160656
80	0xbdcf8224	-0.10132244
81	0x3d9bdcb1	0.07610453
82	0xbdaafd1e	-0.083490595
83	0x3c9b4608	0.018954292
84	0x3d97be87	0.07409387
85	0xbdc6753c	-0.096903294
86	0xbd40cb24	-0.04706873
87	0x3dfba92a	0.12288125
88	0xbd82d848	-0.063889086
89	0xbd9a4f58	-0.07534665
90	0x3d89b8a4	0.067246705
91	0x3dc20b8e	0.0947486
92	0x3b69b240	0.0035659224
93	0x3d307639	0.043081496
94	0x3ccc9280	0.0249722
95	0x3debcc8e	0.11513625
96	0x3db9bbd1	0.09069026
97	0xbdff3acb	-0.12462386
98	0xbd5cec94	-0.053936556
99	0xbde8a718	-0.113599956
100	0xbdcfb393	-0.10141673
101	0xbdb28164	-0.087160856
102	0x3dcc2576	0.099680826
103	0x3dc60afc	0.09670064
104	0xbde824a2	-0.11335112
105	0x3cc06e21	0.023490014
106	0x3dc4e134	0.096132666
107	0x3dbc1488	0.091836035
108	0x3d1f98cc	0.038964078
109	0x3d74a8be	0.059731238
110	0x3bfdcb40	0.0077451766
111	0xbdf7466e	-0.1207398
112	0x3c0bf286	0.008541709
113	0xbcc87d59	-0.024473833
114	0xbd1c0e9c	-0.03809987
115	0xbdb0e710	-0.08637822
116	0xbd2b3182	-0.04179526
117	0xbd868cc5	-0.065698184
118	0xbd8fb7b1	-0.07017458
119	0xbc517f83	-0.012786749
120	0xbda0acb8	-0.078454435
121	0xbbbdf3a2	-0.0057968656
122	0x3dbde55e	0.09272264
123	0xbdd805b4	-0.10547963
124	0x3d812376	0.06305592
125	0x3d7da71c	0.061926946
126	0xbc4e6dbf	-0.012599408
127	0x3ddeb43c	0.10874221
128	0x3ab0cdd5	0.0013489077
129	0xbe119531	-0.14217068
130	0x3d1c18ee	0.038109712
131	0xbdd9d930	-0.10637128
132	0xbe0939ca	-0.13400951
133	0x3c51f6f9	0.0128152305
134	0x3d72f49e	0.059315316
135	0x3cc6974b	0.024242064
136	0xbdcd2ab4	-0.100179106
137	0x3cef9b58	0.029248878
138	0x3c41dc5c	0.011832323
139	0xbd831a1c	-0.06401464
140	0x3dad17a2	0.08451773
141	0xbd35ef01	-0.044417385
142	0xb9d35bbf	-0.00040313412
143	0xbd32de33	-0.043668937
144	0xbd88aa1a	-0.06673069
145	0x3d18db26	0.03731837
146	0x3d159616	0.036520086
147	0xbd5c0f48	-0.05372551
148	0xbd8ab646	-0.06773047
149	0xbd2d9e98	-0.042387575
150	0x3dc836a6	0.09776048
151	0xbdf17d5e	-0.1179149
152	0x3dbc6793	0.09199443
153	0xbdf307ae	-0.11866699
154	0x3d0f804f	0.035034474
155	0xba6ada43	-0.0008958915
156	0x3cf9a968	0.030476287
157	0xbdf33e25	-0.118770875
158	0x3d2bf764	0.041983977
159	0x3d49a949	0.04923371
160	0xbda8a29d	-0.08234141
161	0xbdff534f	-0.12467062
162	0xbc83cfbf	-0.016090272
163	0xbdb72f78	-0.08944601
164	0xbdc01bde	-0.09380315
165	0x3db139f2	0.0865363
166	0xbcfd01f8	-0.030884728
167	0x3d055ab7	0.032557216
168	0xbd099634	-0.03359051
169	0x3a101509	0.00054962985
170	0xbc800048	-0.015625134
171	0x3d6608ba	0.056160666
172	0x3d30b2f4	0.043139413
173	0xbd9266ef	-0.07148539
174	0x3d7222c1	0.059115175
175	0xbcc77278	-0.024346575
176	0xbd59cb88	-0.05317262
177	0x3d5bd0eb	0.053666037
178	0xbc9681ad	-0.018372381
179	0x3dbffe83	0.09374716
180	0x3d8ba601	0.06818772
181	0xbc6a875f	-0.014314502
182	0x3d6e1533	0.058125686
183	0xbdfcb5ff	-0.123394005
184	0xbdd79af4	-0.10527602
185	0xbdebcda8	-0.11513835
186	0x3df98608	0.121837676
187	0x3d3683b0	0.04455918
188	0x3dcce102	0.10003854
189	0xbe061888	-0.13095295
190	0xbe151fa1	-0.14562847
191	0xbd09d548	-0.033650666
192	0xbdde0b78	-0.10842031
193	0xbdb55d58	-0.088556945
194	0x3dd24ecc	0.102689356
195	0x3dc9497e	0.09828471
196	0x3dbcde80	0.09222126
197	0xbdccfb88	-0.10008913
198	0x3c3fc2f0	0.011704192
199	0xbdea3024	-0.11434963
200	0xbdc59570	-0.096476436
201	0xbcc40a88	-0.023930803
202	0xbd7aa458	-0.061191887
203	0x3b985060	0.0046482533
204	0x3df29d9a	0.11846466
205	0x3ccbfcc8	0.024900809
206	0x3c4b9ff0	0.012428269
207	0xbd96a23e	-0.07355164
208	0xbda92b5c	-0.08260223
209	0xbc7b9f30	-0.0153577775
210	0x3d7bc7a0	0.061469674
211	0x3ceff850	0.02929321
212	0xbdd7ffc4	-0.1054683
213	0xbdd9a7ae	-0.106276855
214	0xbdc6d1d0	-0.09707987
215	0xbdff8f4c	-0.124785036
216	0xbce27b40	-0.02764666
217	0xbdbc31c2	-0.09189178
218	0xbc921348	-0.01783146
219	0x3debc434	0.11512032
220	0xbdd4d7f6	-0.10392754
221	0xbce5c650	-0.028048664
222	0x3dc57b8a	0.09642704
223	0xbc5f7230	-0.013638064
224	0x3d4478c8	0.04796675
225	0xbdcfd3dc	-0.10147831
226	0xbcf96798	-0.030444905
227	0x3cabb860	0.02096194
228	0x3cae90e0	0.021309316
229	0xbd7eb34c	-0.06218271
230	0x3d5410cc	0.05177383
231	0xbd29d380	-0.041461468
232	0x3dbee7b2	0.09321536
233	0xbd43c194	-0.047792032
234	0x3dceaefe	0.10091971
235	0x3dfd251c	0.12360594
236	0xbd491930	-0.049096286
237	0xbd9083fc	-0.07056424
238	0xbdedda74	-0.11613932
239	0xbcead070	-0.028663844
240	0xbdfe03cc	-0.12403068
241	0x3d53cc48	0.05170849
242	0xbd021a28	-0.031763226
243	0xbda51976	-0.08061497
244	0x3c711de0	0.014716595
245	0x3db7aaa0	0.08968091
246	0xbde0b56c	-0.109721035
247	0xbd74c2d8	-0.05975613
248	0xbc781f70	-0.015144214
249	0x3df80092	0.12109484
250	0x3dc3140e	0.095253095
251	0xba576800	-0.00082170963
252	0x3ba96460	0.0051694363
253	0xbca290a0	-0.019844353
254	0xbd97842e	-0.07398258
255	0xbdfbb106	-0.12289624

linear2.bias f4 [64]
0	0x3c6b00c0	0.0143434405
1	0xbdd3082b	-0.10304292
2	0xbd9b72b6	-0.07590239
3	0x3c424530	0.011857316
4	0xbdb719a8	-0.089404404
5	0x3cb37918	0.021908328
6	0xbda802a0	-0.08203626
7	0xbcdd7fef	-0.027038543
8	0x3cef0555	0.029177347
9	0x3dbbfcb0	0.09179056
10	0x3d8cd998	0.0687744
11	0xbdaa1dbe	-0.08306454
12	0x3dc2bf0d	0.09509096
13	0x3d73e72f	0.059546646
14	0xbde0c8aa	-0.10975774
15	0xbde60508	-0.112314284
16	0xbceca148	-0.028885499
17	0xbd659fcc	-0.056060597
18	0x3ce6b562	0.028162662
19	0x3cf48f21	0.029853405
20	0x3d92649f	0.07148098
21	0xbd8fb0aa	-0.07016118
22	0xbcf66a41	-0.030079963
23	0xbdded5a6	-0.10880594
24	0xbc0f9098	-0.008762501
25	0xbdc032a0	-0.09384656
26	0x3c631960	0.01386103
27	0x3d1ca088	0.038239032
28	0x3d6bf634	0.057607844
29	0xbd73dc34	-0.059536174
30	0xbd0ca26d	-0.03433459
31	0xbd231585	-0.039815444
32	0x3d89ecb0	0.06734598
33	0x3cb6c078	0.022308573
34	0x3bf19a80	0.007373154
35	0xbddbfb52	-0.10741295
36	0xbda66ff8	-0.08126825
37	0xbdaa4384	-0.08313659
38	0x3d1fa051	0.03897125
39	0xbda20892	-0.07911791
40	0xbc2a0c16	-0.010378858
41	0xbcb20ff0	-0.021736115
42	0xbdd2fc42	-0.103020206
43	0x3daab335	0.08334962
44	0xbd42872e	-0.0474922
45	0x3c45c990	0.012071982
46	0xbdd8f8e5	-0.10594348
47	0x3ccda9b1	0.02510533
48	0x3c3e3aec	0.011610728
49	0x3e2c38eb	0.16818587
50	0xbe1a6d4e	-0.15080759
51	0x3d05c7e1	0.032661323
52	0x3dfbac93	0.12288775
53	0xbd97744e	-0.0739523
54	0x3dc10ff5	0.09426872
55	0xbc814430	-0.015779585
56	0x3b1450f1	0.0022631253
57	0x3de16e3c	0.11007354
58	0xbd3d2394	-0.046176508
59	0x3e058678	0.13039577
60	0xbde76ab3	-0.11299648
61	0x3e1246c8	0.14284813
62	0x3c6a7600	0.01431036
63	0xbccf31b3	-0.025292253

linear3.weight f4 [1, 64]
0	0x3d495fd8	0.04916367
1	0xbd1e2f61	-0.038619403
2	0x3d96d5b5	0.0736498
3	0x3d92f67e	0.07175921
4	0x3c028319	0.007965826
5	0xbdf8f0ae	-0.12155281
6	0x3d5904e0	0.052983165
7	0x3ba7decd	0.0051229955
8	0x3c14bff8	0.009078972
9	0x3db3b10e	0.08774005
10	0x3d95fc16	0.07323472
11	0x3d975d4c	0.07390842
12	0xbd916e87	-0.071011595
13	0x3dd13d73	0.10216799
14	0x3d7b6c44	0.061382547
15	0x3d658824	0.056038037
16	0xbdd3b34e	-0.10336934
17	0x3d48c2c0	0.049013853
18	0x3dd0f697	0.10203283
19	0xbc552b86	-0.013010865
20	0xbe153e16	-0.14574465
21	0xbdc1a988	-0.09456164
22	0xbdba0980	-0.09083843
23	0xbd921102	-0.0713215
24	0x3dac2703	0.084058784
25	0x3da8cc43	0.08242085
26	0xbd787318	-0.060656637
27	0xbbe64d40	-0.007028252
28	0xbd85eba8	-0.065390885
29	0x3d4ad41c	0.04951869
30	0x3b4e44f4	0.0031474205
31	0x3d345601	0.044027332
32	0xbdd25070	-0.102692485
33	0xbbac551b	-0.005259169
34	0xbdb3dee2	-0.08782746
35	0x3ddc8538	0.10767597
36	0x3ddf493c	0.1090264
37	0x3d56b980	0.052423
38	0x3d5d5f06	0.0540457
39	0xbd032a14	-0.03202255
40	0xbc84f919	-0.01623206
41	0xbc742290	-0.0149008185
42	0xbd3abde0	-0.045591235
43	0xbdc0be62	-0.09411313
44	0xbc8d11f7	-0.01722048
45	0x3dbaa28a	0.09113033
46	0x3d8b12e3	0.06790712
47	0xbdd57e64	-0.10424498
48	0x3d620d6a	0.055188574
49	0xbd83fa1d	-0.0644419
50	0xbc10509c	-0.008808281
51	0x3c7e8519	0.015534663
52	0xbe0092ba	-0.12555972
53	0x3d730480	0.059330463
54	0x3d4111b5	0.047136027
55	0xbdb0723e	-0.0861554
56	0xbdf56372	-0.11981858
57	0x3d04e89c	0.032448396
58	0xbda2c300	-0.079473495
59	0xbd379582	-0.044820316
60	0x3d97a8e8	0.07405263
61	0xbddc9bcf	-0.10771906
62	0x39fda448	0.0004837832
63	0xbdc65e18	-0.09685916
