code/crowd_dynamics/ANNS/critic.pth (torch_old, 19254 bytes, 5 tensors)

linear1.weight f4 [64, 4]
000000 c6 fb 7c bd 54 3d 47 3e 9f 20 42 3d bd a3 62 3a
       -0.061763547 0.19456989 0.04739439 0.0008645615
000010 4f a2 05 be b5 3c 0e 3e 92 50 e0 be 56 1b c9 be
       -0.13050197 0.13890345 -0.4381147 -0.39278668
000020 e4 a3 5a be 49 67 75 3e 57 79 34 be 1f 87 52 be
       -0.21351582 0.23965181 -0.17624412 -0.20559357
000030 7e ad bf be 84 e2 c2 be b4 97 b5 3e d4 56 f4 be
       -0.37437052 -0.38063443 0.35467303 -0.47722495
000040 78 b7 87 be a0 c4 ba be be bc f1 3e ac 7e f8 be
       -0.26507163 -0.36478138 0.4721431 -0.48534143
000050 84 35 be bd 80 b7 e2 3c 5f 64 3e 3e 0e 55 b1 be
       -0.09287551 0.02767539 0.18592976 -0.34635204
000060 04 57 6c be c3 99 c5 3e be d0 18 3e b9 85 4c be
       -0.23080069 0.38593873 0.14923379 -0.19972886
000070 16 a5 d8 3d 47 ad f3 3d e6 ea 83 be 8d 49 9b be
       0.10578363 0.118982844 -0.2576515 -0.30329552
000080 1f 17 d5 be 1c b9 c3 3d af db 82 3e ce a0 bd be
       -0.41619202 0.09556791 0.2555823 -0.37036747
000090 53 a8 f8 3d 36 59 d7 3e 5f cb b5 3e 59 04 0e 3f
       0.1214148 0.4206025 0.35506722 0.55475384
0000a0 40 c3 0c 3c 7c 06 fc be 6c b3 6f be d0 fc 2d be
       0.008591473 -0.49223697 -0.23408288 -0.16990972
0000b0 38 db 9f be fc cb cf be 70 af d3 3d 8c 49 47 be
       -0.31221938 -0.40585315 0.103361964 -0.1946165
0000c0 6b 92 77 be 8c 79 01 3f f8 f2 60 be fe 04 2f 3e
       -0.24176948 0.5057609 -0.21967685 0.17091748
0000d0 77 a9 09 3e a2 b7 90 bc 0a 87 13 bd 60 ea 80 be
       0.13443552 -0.017665688 -0.036017455 -0.25178814
0000e0 f0 1f 84 bd 78 c6 8c 3e 44 5e 90 3e fc 99 89 3d
       -0.06451404 0.2749517 0.2819692 0.06718823
0000f0 30 8d 85 3e 46 a3 e1 be 78 a6 b6 be fe 7f b7 3e
       0.2608428 -0.4406988 -0.3567388 0.35839838
000100 72 58 73 3e ac 3b 69 bd 03 59 07 be 8f ee 95 3e
       0.23764208 -0.056941673 -0.13217549 0.29283568
000110 d0 67 f4 bd b0 b5 e7 bd cc 03 a7 be 44 32 98 be
       -0.11933863 -0.11313951 -0.32620084 -0.2972585
000120 2e b6 95 be 80 6d 9b be 8a 70 a1 3e aa 5d ea be
       -0.29240555 -0.3035698 0.31531173 -0.45774585
000130 44 91 7d be e1 20 cf 3e 0e 70 da bd 14 ee 27 3e
       -0.24762446 0.40454772 -0.10665904 0.16399413
000140 a7 7a e7 3e d8 a8 18 bd 12 1a 65 3c ce 26 20 be
       0.45210764 -0.037270397 0.013983266 -0.15639803
000150 99 62 3c 3e a0 b4 b6 be 6b 0a cf 3e 09 f1 86 be
       0.18396987 -0.3568468 0.40437636 -0.2635577
000160 a7 21 df 3e 54 0d 09 3d 68 dc f6 3d f3 9b 80 bc
       0.43580362 0.033459976 0.12053758 -0.015699362
000170 3d 80 9d 3e 11 35 8a 3e 9f b3 25 be 7e 5e 49 be
       0.307619 0.2699361 -0.16181801 -0.19664952
000180 c8 a7 e9 3d d4 f3 16 be a0 ac 55 be a8 72 3e be
       0.11408955 -0.1474145 -0.20866632 -0.18598425
000190 46 69 e0 3e 04 55 f7 bd 08 d8 b6 3d 9d ee ca 3d
       0.43830317 -0.12076762 0.089279234 0.09908793
0001a0 24 5c 97 3e 48 53 a6 3e dd 70 32 bd af 29 e2 3e
       0.29562485 0.32485414 -0.043564666 0.44172427
0001b0 27 3a 7d be f8 64 52 3e 89 65 81 be da d0 c5 3e
       -0.24729215 0.20546329 -0.25272778 0.38635904
0001c0 0c e1 97 3e 00 29 9d 3e f4 41 4a be 55 4e fb 3e
       0.29663885 0.30695343 -0.19751722 0.490832
0001d0 78 3a 85 3e 79 53 aa be 7c ad 10 be 95 df c4 be
       0.2602117 -0.3326681 -0.14128679 -0.3845183
0001e0 36 1a b7 be 23 c5 c7 3e 3c 5e e0 3d ad be af be
       -0.35762185 0.3901759 0.10955474 -0.34325162
0001f0 e7 96 26 be e9 2b 68 3e bb 13 62 bc e2 7f 51 3e
       -0.16268502 0.22673 -0.013798649 0.2045894
000200 3a c0 08 3e f1 7d ba bd 96 3f 92 3e 34 c1 08 3f
       0.13354579 -0.09106053 0.28564137 0.53419805
000210 c8 47 b5 bd 98 e1 10 be f8 f0 cc be 62 39 a5 be
       -0.08851582 -0.14148557 -0.40027595 -0.32270342
000220 e3 34 a6 3d e5 40 4a 3e 21 fe fd 3e 89 1c 98 bd
       0.08115556 0.19751318 0.49607947 -0.07427318
000230 62 d5 90 3e 2e e6 d1 be 70 c5 ed be fe 3b 96 3e
       0.28287798 -0.40995926 -0.46439695 0.29342645
000240 b1 02 49 3d c3 21 7c 3e 1e 2e bf be 7c 5f 1b be
       0.049074832 0.24622254 -0.37339872 -0.15173143
000250 d5 46 ca 3e 3c 53 5e be f5 33 10 3e 41 a8 cf bd
       0.39507166 -0.21711439 0.1408232 -0.10139514
000260 b8 ab 6d 3e 51 3f f1 3e be db ca 3e 36 45 1e 3e
       0.23210037 0.4711862 0.39620775 0.1545609
000270 6e 05 0f 3e 24 81 de 3e da 7c 71 3e 39 45 c7 be
       0.13966915 0.434579 0.23582783 -0.3892
000280 0d 4e e3 3e 49 22 1a 3e b3 d9 a4 be 3c f4 ca 3e
       0.44395486 0.15052141 -0.3219734 0.3963946
000290 ec cc 55 3e f6 86 ae bd 29 2e db 3e c8 78 8e 3d
       0.20878953 -0.085218355 0.42808655 0.06956631
0002a0 ff 5d c8 be 8e b6 81 3e 8c 23 75 be 84 eb 84 3e
       -0.39134213 0.2533459 -0.23939341 0.25960934
0002b0 00 67 9f 3d 18 bf cb bd 36 2c 99 be 08 77 38 be
       0.077833176 -0.099485576 -0.29916543 -0.18014157
0002c0 94 07 9f be 00 55 9d be e8 74 c3 bd 8a 16 c5 3e
       -0.3106047 -0.30728912 -0.095437825 0.38493758
0002d0 a0 06 6c 3e 50 93 39 be 32 2c f7 be b4 27 e6 be
       0.23049402 -0.18122602 -0.48275906 -0.44952166
0002e0 20 5c e5 be 1c 53 34 be f4 de 04 3e 60 4f e0 3e
       -0.44796848 -0.17609829 0.12975675 0.43810558
0002f0 b8 58 ff be fa a2 8b be aa 95 90 3e ee 91 a8 3e
       -0.49872375 -0.2727278 0.28239185 0.32923836
000300 40 21 c5 3e 51 2c a2 3e aa be fa 3e 74 ad c8 3d
       0.3850193 0.31674436 0.4897359 0.097987086
000310 ba 65 91 be c8 04 0f be ac dd b3 3e 50 a9 42 3d
       -0.28397924 -0.13966668 0.3513006 0.04752475
000320 9e db f0 be 08 0c 03 be c0 cc 67 3d c0 cd 24 be
       -0.47042555 -0.12797558 0.05659175 -0.16094112
000330 99 67 a7 3e 6c 01 bf be 8e 93 a2 3e 10 36 44 be
       0.32696226 -0.37305772 0.317532 -0.19161248
000340 32 cf 9d be a8 45 5a be 56 0d 9c be ac 44 7c be
       -0.3082214 -0.21315634 -0.30478925 -0.24635571
000350 10 20 a9 be f0 95 57 3d 2c 09 ed be 30 f5 5b be
       -0.33032274 0.052633226 -0.4629606 -0.2148025
000360 d0 4d 2e be b2 62 93 be 8a 43 df 3e 42 62 8e 3e
       -0.1702187 -0.28786236 0.43606216 0.2780934
000370 ca 9a 55 bd 8d 9c e5 3e 07 72 a1 3e 18 71 92 3e
       -0.05214957 0.44846 0.31532308 0.2860191
000380 aa b7 2f 3c ea 61 a5 3e 53 87 96 be 63 5e 98 be
       0.010724941 0.32301265 -0.2940012 -0.2975951
000390 ee 64 84 be 50 36 91 3d 74 0f 1c 3e 80 79 9e bc
       -0.25858253 0.070904374 0.1524027 -0.019345045
0003a0 16 b3 df be 50 0e 25 be 7e cb e8 3e 08 69 25 3e
       -0.4369132 -0.16118741 0.45467752 0.16153347
0003b0 e2 a0 83 be 20 e8 55 3e 63 9d 3a 3c bd 56 64 bd
       -0.2570868 0.2088933 0.011390063 -0.055746783
0003c0 3c fc 8d 3e 21 c1 c2 3c 28 9a d8 3d 4c 5a b9 be
       0.27731502 0.023773732 0.10576278 -0.36201704
0003d0 fb be 7d be 96 0e 34 3e 2e 2d ac be f3 bd 97 be
       -0.24779885 0.17583689 -0.3362822 -0.29637107
0003e0 49 48 7e be bd e3 cc 3e 05 c7 0f 3d 9f 80 05 3f
       -0.24832262 0.400175 0.03510191 0.52149385
0003f0 c5 8d ce 3e 7f aa d4 3e c1 ed a6 bd cc 92 ae be
       0.40342537 0.41536328 -0.08150817 -0.34096372

linear1.bias f4 [64]
000000 f6 ac e4 3d 18 d8 8f 3e 6c cf 49 bd 3c 78 ae 3e
       0.11165802 0.28094554 -0.04927008 0.34076107
000010 8c a7 8c be ce c0 ea be 34 84 79 be d6 2d 4c 3e
       -0.27471578 -0.45850223 -0.24366838 0.1993936
000020 85 3a b3 3e 86 89 8f 3d d8 05 9b bd 1a 96 a6 3e
       0.35005584 0.070086524 -0.07569474 0.32536393
000030 0d dd 92 be b6 af 6a be b0 56 b6 bc 4c c0 42 3e
       -0.28684273 -0.22918591 -0.022258133 0.19018668
000040 d7 a1 b6 3e 44 09 bc be e8 44 4b be 39 7f 0b bf
       0.3567035 -0.3672582 -0.19850504 -0.54491
000050 6c d9 9e be c3 6a c2 3e f1 50 72 3e 83 13 b7 3e
       -0.31025255 0.37972078 0.23663689 0.35757074
000060 10 43 1c 3e a2 dd 4d bb 32 b2 18 be 2a 40 e9 bd
       0.15259957 -0.003141262 -0.14911726 -0.113891914
000070 81 1a 8e 3e 8b 00 eb be 0c bc e1 be 30 1b 10 3f
       0.27754596 -0.45898852 -0.4408878 0.56291485
000080 c7 47 80 be 60 73 7a 3e 96 d0 05 3f 42 ea b5 be
       -0.25054762 0.24458075 0.522714 -0.35530287
000090 c3 23 8a be f0 03 81 3e 25 57 ee 3e 28 1a d6 be
       -0.2698041 0.25198317 0.4655086 -0.4181683
0000a0 57 07 00 bf e7 80 0f bd 71 95 b4 be 90 aa 96 3e
       -0.500112 -0.03503504 -0.35270265 0.29427004
0000b0 00 cb 9a bd 46 e3 e2 be 60 d8 ce 3e 00 4b 31 3e
       -0.075582504 -0.4431402 0.40399456 0.17313766
0000c0 42 c5 8e 3d 2c f6 92 3e e4 75 b9 3e d8 70 d8 be
       0.06971218 0.2870344 0.36222756 -0.42273593
0000d0 a0 72 c5 3d 66 7c ba be 9c 7d e0 3e c0 fa f5 be
       0.096410036 -0.36423033 0.43845832 -0.4804287
0000e0 bb 2b 99 be 88 f0 3d be 58 63 a6 3d e1 ca 55 3e
       -0.29916176 -0.18548787 0.08124417 0.20878173
0000f0 0a 43 f7 be 69 59 b9 3d 5d 7b 08 3c 87 75 a1 3e
       -0.48293334 0.09050257 0.008330193 0.3153498

linear2.weight f4 [64, 64]
000000 6c 06 e0 3d 10 49 99 3d 6c c8 01 bd 5c 88 8c bd
       0.10938725 0.07484639 -0.031685278 -0.06861946
000010 be a0 af bd 6c e4 e8 bd 00 d6 20 bc 62 73 ec 3d
       -0.08575581 -0.11371693 -0.009816647 0.11545445
000020 08 93 bc bd a0 3c f8 bd 30 7c 4b bc 10 1a 62 3d
       -0.092077315 -0.12120938 -0.012419745 0.055200636
000030 ac eb be 3d 60 4e 45 3c cc 90 7d bd f4 dc 6c bd
       0.093222946 0.012042612 -0.061905667 -0.057827905
000040 c2 0c 9a bd 1a 01 9a bd 6e 75 81 3d 00 bd 82 bb
       -0.075219646 -0.07519741 0.06321226 -0.0039898157
000050 98 b7 7a 3d a2 68 ea bd 74 37 16 3d 40 2e 38 3c
       0.061210245 -0.114457384 0.036673978 0.011241496
000060 90 75 60 bd 20 11 7e bd 44 cb ae bd fa 97 d3 bd
       -0.054799616 -0.06202805 -0.085348636 -0.103317216
000070 b6 1c 89 bd b8 e5 d3 3d 98 ca 80 3d ac ef ef bd
       -0.06694929 0.1034655 0.06288642 -0.11715636
000080 42 38 93 bd b0 ea 51 3c f4 ad c1 bd 00 be 29 bd
       -0.07188465 0.0128123015 -0.09457007 -0.041440964
000090 96 49 82 bd f2 7b 8c 3d bc 37 17 bd 48 ba de 3d
       -0.06361692 0.06859578 -0.036918387 0.10875374
0000a0 f2 d7 e9 3d 70 98 02 3c e0 d4 2b 3d 40 36 cc 3b
       0.114181414 0.007970914 0.04195106 0.006232053
0000b0 10 e4 be bc 1c 71 45 bd a4 a9 de bd 10 40 a0 3c
       -0.023302108 -0.048203573 -0.108722 0.019561797
0000c0 14 81 5b 3d 04 dd 83 bd b4 20 e6 3d f8 a1 74 3d
       0.053589895 -0.0643864 0.112367064 0.059724778
0000d0 b0 9b b5 bc 08 73 4d bd 02 e1 b6 bd 7e 52 dd bd
       -0.022168964 -0.05015853 -0.089296356 -0.1080675
0000e0 34 84 e2 3d 68 89 b7 3d 62 bc ef bd d0 ea fb bc
       0.11060372 0.08961755 -0.11705853 -0.030751616
0000f0 2e df bd bd 96 1d 92 3d 10 2a 25 bd b0 87 e1 3c
       -0.09271084 0.07134549 -0.040323317 0.027530521
000100 11 81 d8 3d 6e da e2 bd 0e 6d b9 3d a0 48 bf 3b
       0.105714925 -0.110768184 0.09054004 0.005837515
000110 80 8c 95 ba e8 75 c7 bc 99 4b c4 3c 4c 18 08 bd
       -0.001140967 -0.024348214 0.023961829 -0.033226296
000120 60 c3 49 bb 7d 18 08 bc c8 9f eb 3d b4 40 e3 bd
       -0.0030786619 -0.00830662 0.11505085 -0.110963255
000130 89 17 05 3d f0 8c a7 bd 27 ca dd 3d a2 48 f4 bd
       0.032493148 -0.081811786 0.10829573 -0.11927916
000140 50 ad 0c be 5c 6b 91 3d f4 c3 64 bd 63 26 d4 bc
       -0.13737988 0.07100555 -0.055850938 -0.02589721
000150 d4 8a 8e bd 30 a9 7d bc 5f 59 c7 bd 28 99 c4 3d
       -0.06960073 -0.015482232 -0.09733843 0.09599525
000160 84 45 85 3d b0 56 9a bc e4 9b 87 3b 53 11 22 bd
       0.065074 -0.018840164 0.0041384567 -0.039567303
000170 ef 05 d8 bc b2 7e f2 bd c3 cd 87 bc 27 70 56 3d
       -0.026370017 -0.118405715 -0.016577607 0.05235305
000180 5d 34 c6 3c ae 1e c0 3d 6d e8 42 bd bc fc b0 3d
       0.02419489 0.09380852 -0.04758494 0.08641955
000190 bf 05 ad bd f6 bf e8 bd 95 87 85 bd 7b ae 6c bd
       -0.084483616 -0.11364739 -0.06520001 -0.057783585
0001a0 ab 74 77 3d 20 15 f0 3c 03 57 a8 bb 40 61 19 3d
       0.060413998 0.029306948 -0.0051373257 0.03744626
0001b0 a8 a4 5d 3d 60 a3 9f bd 44 09 d2 bd 80 37 c0 bc
       0.054112107 -0.07794833 -0.102556735 -0.023463964
0001c0 6a 0c 18 3d c4 d7 bb bd 88 e0 d9 bc b0 ce fa bd
       0.037121214 -0.091720134 -0.026596323 -0.12246454
0001d0 70 27 e3 3d 9a bb e7 3d d4 8d 73 3d 28 c7 c4 bd
       0.110915065 0.11315079 0.05946143 -0.096082985
0001e0 b4 2b 6d bd 88 dc f7 bd 0c 20 76 3d 76 8d 25 3d
       -0.057903007 -0.1210261 0.060089156 0.04041811
0001f0 5e 5f 32 3c 7e a1 77 bd 69 54 13 3d e3 50 29 bc
       0.010886995 -0.060456745 0.03596917 -0.010334226
000200 0c 35 ea bc c6 b7 54 bd ec 10 a6 3d 60 d9 93 bd
       -0.028589748 -0.051933073 0.08108696 -0.07219195
000210 18 d1 fe 3c 83 df b6 3d 6e 25 34 bd b9 b3 30 bc
       0.031105563 0.0892935 -0.04398101 -0.010785037
000220 d4 f4 60 3d 99 bb 2e 3d aa bd f1 3d e0 b4 02 3c
       0.054920986 0.042659376 0.11803754 0.007977694
000230 42 5c 92 bd 47 05 82 3d 5d f8 72 3c ce 7f c4 3d
       -0.07146503 0.06348663 0.014829722 0.09594689
000240 dc 5e 91 3d fc ff 23 3d d4 01 3a 3d 9a 1e 9f 3c
       0.07098171 0.040039048 0.0454119 0.019423772
000250 96 79 59 bd 66 34 4a bd 4f ac 94 3d a8 90 9d 3b
       -0.05309447 -0.049366377 0.07259428 0.004808504
000260 c0 21 7a bc fa 1e 00 bd 99 df fc 3d a8 b1 9e bd
       -0.015266836 -0.03127954 0.12347335 -0.07748729
000270 01 50 15 3e 47 f3 00 3d ce cd 25 3d 04 8e 0c 3e
       0.145813 0.031482007 0.040479474 0.1372605
000280 15 df ac 3c 18 b2 62 3d c4 b0 f1 bc 36 eb ce 3d
       0.021102468 0.055345625 -0.029503234 0.10103457
000290 9c f0 fa bd a6 63 9e 3d 2f 8c ab bc 7c eb a0 3d
       -0.12252924 0.0773385 -0.020940868 0.07857415
0002a0 63 e0 ac bc ac f2 6f bd 60 59 b5 3d b0 57 f0 bc
       -0.02110309 -0.05858104 0.088549376 -0.029338688
0002b0 60 8f 94 3d f0 2b e1 3d 80 91 99 bb 4e 8e de 3d
       0.07253909 0.109947085 -0.0046865344 0.10866986
0002c0 50 95 9f bc 30 fa 56 3d 20 73 00 bc f8 4a cc bd
       -0.019480377 0.05248469 -0.007839948 -0.09975237
0002d0 0e b3 8c bd bc 22 20 bd 3e 20 93 bd 2f 24 94 3c
       -0.068700895 -0.039095625 -0.07183884 0.01808366
0002e0 7c 27 56 bd 00 10 34 bd 68 97 c9 3c f2 de 39 3c
       -0.05228375 -0.04396057 0.024608329 0.011344658
0002f0 30 53 ca bc 76 e7 c2 bd e3 11 c3 3d 4b c2 f9 3d
       -0.02469787 -0.09516804 0.09524896 0.121952616
000300 2d 87 b2 bd 47 03 03 bd f5 14 87 bb b0 d8 bc 3c
       -0.08717189 -0.031985547 -0.0041223713 0.023052543
000310 ce d8 83 3d fe c2 b4 bd 93 24 2c bd f4 17 c7 3d
       0.064378366 -0.08826254 -0.042027067 0.097213656
000320 2f 5e 19 bd 2c 19 18 3e 08 53 17 3d ac b5 32 3d
       -0.037443336 0.14853352 0.03694442 0.043630287
000330 bf 9f 76 bd 32 70 34 be 0c 9a 4c bc 9e 97 a7 bd
       -0.06021094 -0.17620924 -0.0124878995 -0.081832156
000340 6b 4b 1f 3d ec e2 e6 bd 8c a2 24 bd 2b 59 1f bd
       0.038890284 -0.11273751 -0.04019408 -0.038903397
000350 c2 3b 20 3d 77 1e a7 bd 52 74 1b bd 28 84 03 3e
       0.03911949 -0.081601076 -0.03795273 0.12843382
000360 48 c3 16 bd 9e 2c 11 bc 79 a7 90 bc d4 b3 93 39
       -0.03680733 -0.008860735 -0.017657982 0.00028172007
000370 b8 75 f6 bb 52 41 a2 3d 4e 38 2c bd 09 f4 07 3e
       -0.0075213574 0.07922615 -0.042045884 0.13276686
000380 a1 7c 28 3e 4c 57 7b 3d 10 3f f6 3d 60 7f f0 bd
       0.16453792 0.06136255 0.12023747 -0.11743045
000390 77 93 7c 3d c4 d3 22 3d 4a 89 37 3d c5 e9 bf 3c
       0.06166407 0.039752737 0.044808663 0.0234269
0003a0 25 d7 94 3b 9e a5 0b 3e 50 6f ae bd 98 a7 09 3d
       0.004542249 0.13637397 -0.08517325 0.033607095
0003b0 a0 c6 69 3d 22 61 b4 bd e0 4f 1d bd 24 2c b2 3d
       0.05707419 -0.08807589 -0.038406253 0.086998254
0003c0 42 bd 94 bc 74 1b e9 bd 70 b5 27 bc 64 f5 3c bd
       -0.018156651 -0.113821894 -0.010236129 -0.04613246
0003d0 1e 4f aa bd 24 fb 18 3d d8 0f de 3d be e0 38 3b
       -0.08315872 0.03734888 0.10842866 0.0028210129
0003e0 b3 74 90 3d e4 43 86 bd 70 1b cc 3c 18 36 c7 bc
       0.070535086 -0.06555918 0.024915427 -0.024317786
0003f0 a8 62 6b 3d 40 30 3a bd cd 6b 78 bd 76 9b 03 3d
       0.057467133 -0.04545617 -0.06064968 0.03213068

linear2.bias f4 [64]
000000 20 b0 d1 bb 6d a2 16 bd 17 b4 29 bd 9d 9d 0f 3b
       -0.0063991696 -0.036775995 -0.041431513 0.0021914013
000010 b1 d9 53 3d ee a2 c6 3d b8 3a 9c 3c 1c d3 27 bd
       0.05172128 0.09699045 0.019070968 -0.040972814
000020 da 8f e8 3d f4 dd 39 3d 5c ba 63 3c 24 36 e8 bc
       0.113555625 0.045377687 0.013899412 -0.028346129
000030 2e 50 d3 3d 49 17 22 3d 30 76 21 bd 31 e4 ca 3c
       0.103180274 0.039572988 -0.039419353 0.024767013
000040 65 ef 1f 3d 8e a6 73 bc 2f 4e a7 3c 10 b9 d5 bc
       0.039046664 -0.014871253 0.020423023 -0.026089221
000050 35 b8 e1 3c cf 2d 52 bd d9 9d 1e 3e 60 bc 2a 3c
       0.027553657 -0.051313218 0.15489902 0.010420889
000060 36 66 f1 3d a9 3e f8 3d f2 20 83 bc 8a 13 0e 3e
       0.11787073 0.121213265 -0.01600692 0.13874641
000070 d0 47 70 3c 3f da 85 bd dc 5b c1 3d 2e 15 95 3d
       0.014665559 -0.06535768 0.09441349 0.0727943
000080 3a 46 bf bd 74 ba 92 bc 51 9c d6 3d fb 8f ac bd
       -0.093395665 -0.017911173 0.10479034 -0.084258996
000090 e8 48 9d bd fd 43 11 3c 9c 38 b8 3a aa 8a e7 bd
       -0.076799214 0.008866307 0.0014054957 -0.11305745
0000a0 54 5b 0f 3e be 79 85 bd a7 7f 86 3d 19 4a 2d 3e
       0.13999683 -0.06517361 0.065673165 0.16922797
0000b0 31 98 07 be fc d4 cf 3d da 25 de bc 5f 7f 29 3e
       -0.1324165 0.101480454 -0.027117658 0.16552494
0000c0 2d a2 dd 3c 80 b0 83 bb a8 a0 de bd ca 90 96 3d
       0.02705487 -0.004018843 -0.108704865 0.07351835
0000d0 08 73 80 bd 86 99 b6 3d 62 6c 8a 3d c0 32 93 3c
       -0.062719405 0.08916001 0.06758954 0.017968535
0000e0 46 0a 99 3d ad c2 8b 3d 40 9e 91 3c 6c 62 09 bd
       0.07472663 0.06824241 0.017775655 -0.033541128
0000f0 75 55 3c 3d 85 15 23 3d c4 e4 c5 bd ea 11 0b be
       0.045979936 0.039815444 -0.09662774 -0.13581052

linear3.weight f4 [1, 64]
000000 ec 26 76 bd 8f 48 aa 3d a9 f8 ef bd 1c f0 bf bd
       -0.060095713 0.08314621 -0.1171735 -0.09371969
000010 5e 40 3f bc ee 87 69 bc 94 b9 c3 3d c4 70 7a 3d
       -0.011673061 -0.0142536 0.095568806 0.061142698
000020 ae b6 cb bd ba 41 83 3d 9b 4e 01 bc 45 c9 c3 bd
       -0.09946953 0.06409021 -0.007892276 -0.095598735
000030 6e 88 50 3d 05 a5 8d 3d f7 c0 ff 3d 4a c0 fc 3c
       0.05091136 0.069162406 0.12487977 0.03085341
000040 1e 68 da 3d b2 06 c5 3d 2c 1e 54 bd a6 4e bf 3d
       0.1066439 0.09620418 -0.051786587 0.09341173
000050 55 36 77 3d 3d 5c c9 bd 2a 1d 37 bd 76 65 97 bd
       0.06035455 -0.09832046 -0.044705547 -0.07392399
000060 72 62 c6 bc 52 c9 99 bd 68 8f c6 3d ff 47 2d bd
       -0.024216864 -0.07509102 0.09695321 -0.04230499
000070 00 e9 ed bc 9d a7 f8 bd e2 ad d1 bd e6 58 1b 3d
       -0.029041767 -0.12141345 -0.10238244 0.037926577
000080 80 39 19 3c c1 c4 75 3d 3c d5 00 bd d6 ab e5 3d
       0.009352088 0.060002092 -0.031453356 0.11214416
000090 26 aa b7 bd 85 e1 96 bb 0e 26 37 bd 3e 2c fc bb
       -0.08968 -0.0046045207 -0.044714026 -0.007695704
0000a0 cc 52 97 bd 60 25 cd bc bc 06 04 bd b2 ff e9 bc
       -0.07388839 -0.025042236 -0.032232985 -0.028564308
0000b0 6c 04 cf 3d 74 91 9f bd 42 3f a2 3d 82 99 c1 bd
       0.10108265 -0.07791415 0.07922222 -0.094531074
0000c0 84 33 17 bb 44 3a c3 3d 80 df 57 3c fe eb 81 bd
       -0.0023071477 0.09532598 0.013175845 -0.0634384
0000d0 d2 24 da 3d 02 f9 b6 3d 00 f8 3f 3a 0e 73 db 3d
       0.10651554 0.08934213 0.00073230267 0.10715304
0000e0 c0 15 1d bd 96 d8 0e be 80 11 41 bb a8 59 fa 3c
       -0.03835082 -0.13949808 -0.0029459894 0.03056033
0000f0 ce 2f c0 3d 0a a9 69 bc 78 ca 5a 3d e1 8b 36 3d
       0.09384118 -0.014261493 0.053415745 0.044566993
